solmate_app/assess/model_weights/autoencoder_weights.pth (torch, 29042 bytes, 12 tensors)

encoder.0.weight f4 [64, 6]
0.36025688 -0.06135019 0.13220064 0.17659299 0.30426383 0.49383911 -0.25275025 -0.1331895
-0.13927267 0.46224555 0.48857567 -0.3684307 -0.15353471 0.32697436 -0.40315586 0.067608826
-0.36658913 -0.00045743288 -0.28421172 0.2651065 -0.026616102 -0.24155416 0.33983618 -0.21314436
0.22633487 0.01034711 0.1823516 0.061237182 0.08314072 -0.27991763 0.16482396 0.31263474
-0.5900195 0.042039055 -0.088262945 0.27555588 0.34849155 0.14708184 0.36239994 -0.19857155
0.25791666 0.24916601 0.303237 0.29620993 0.27302524 0.14815347 -0.3181805 0.3024163
0.57275516 0.013844132 -0.16458972 -0.36717293 -0.26289922 -0.26644045 0.27699098 0.41990885
0.008217512 -0.3152513 -0.021439381 -0.26994917 -0.3760083 -0.09200337 -0.19758111 0.3854383
0.30958167 -0.53134894 0.15899968 0.51539224 0.29350716 0.09827006 0.12210192 0.041734412
-0.059205536 -0.27424398 -0.3083626 0.0058712345 0.25954583 0.14761657 -0.3157542 0.38320565
-0.35687605 0.05681527 0.24878155 0.11398995 0.2515663 -0.039954636 0.49591598 -0.3636417
0.26458922 0.4825205 -0.21115652 -0.42553067 -0.26852188 -0.4408241 -0.05665135 0.2300912
-0.3367428 -0.2698133 0.03948089 0.10427187 0.029403273 0.34390837 0.05749241 -0.07936214
0.004209646 0.050106704 0.25532398 -0.009195822 -0.43717307 0.24018045 0.21191412 -0.10415175
0.2124831 -0.3490836 0.338674 -0.26379377 -0.16316718 -0.0751314 0.27839392 0.12278141
-0.015692595 -0.02859677 -0.31570885 0.24449384 -0.29882216 0.5428523 0.2349917 0.101743475
-0.40896067 -0.3606308 -0.30683005 -0.0674437 0.2150509 -0.17386083 0.10422548 -0.29692003
0.5111928 -0.20680937 0.38406348 -0.21668857 0.44125512 -0.20832957 0.02719688 0.4095383
0.3071565 -0.17056839 -0.31130195 -0.31228757 -0.049232233 0.6152162 -0.3253199 0.20847324
0.48918083 0.18095501 -0.011460003 0.35618857 0.016066495 0.23624064 0.2775325 -0.31679508
0.0012853942 -0.098552525 -0.16364194 -0.11656448 -0.3150387 0.22648951 0.09451335 -0.03257447
-0.20818457 0.048444856 0.15828238 -0.019948024 -0.42378294 0.16500139 -0.35476875 -0.01729035
0.0606924 0.07443515 0.09084795 -0.21790265 -0.25432453 0.017656049 -0.1448719 0.32238856
0.34831655 0.21066235 -0.12800898 0.2526071 0.3228983 -0.3536703 -0.04513189 -0.26674208
-0.074101865 0.14306512 -0.07606194 0.009524853 0.20935282 -0.029954873 0.028680235 -0.14425078
0.012303964 0.22891377 -0.3106705 0.34433684 0.39053524 -0.30387074 -0.0036665055 0.43643436
0.41925272 -0.13048927 -0.12643051 -0.25119245 0.004939583 -0.15979381 0.15380311 -0.058615096
0.17598853 0.078467324 -0.23802948 0.28565988 -0.027518976 -0.23666774 -0.34394464 -0.15553416
0.10159368 0.072418615 -0.094103344 0.20831802 0.16858463 -0.24409296 0.39640397 0.12600869
-0.14425734 -0.2721575 -0.11173888 0.1914951 -0.17782551 0.18190123 -0.23579893 -0.23449777
-0.5814517 0.03979864 0.11171548 -0.012045201 -0.5058476 -0.1510386 -0.1539696 -0.13575287
-0.4008493 -0.1485685 -0.16287455 -0.12814379 0.29476944 -0.011602019 -0.32976553 -0.010726185
00000000: 9773 b83e 564a 7bbd 9b5f 073e cbd4 343e
00000010: 78c8 9b3e 7bd8 fc3e 7b68 81be d462 08be
00000020: 7f9d 0ebe 73ab ec3e 9726 fa3e f3a2 bcbe
00000030: 3438 1dbe 2f69 a73e 726a cebe 7f76 8a3d
00000040: 92b1 bbbe 9ad3 efb9 3384 91be 0abc 873e
00000050: 030a dabc f959 77be 02ff ad3e 8442 5abe
00000060: 54c4 673e ed86 293c 61ba 3a3e d7d3 7a3d
00000070: af45 aa3d 5d51 8fbe 9dc7 283e a911 a03e
00000080: 850b 17bf 2531 2c3d 34c3 b4bd a915 8d3e
00000090: 7c6d b23e 9f9c 163e 7c8c b93e 5756 4bbe
000000a0: a70d 843e 6025 7f3e e141 9b3e d4a8 973e
000000b0: f7c9 8b3e 8bb5 173e 8ee8 a2be 4fd6 9a3e
000000c0: 15a0 123f 80d2 623c 358a 28be 17fe bbbe
000000d0: ba9a 86be e26a 88be c3d1 8d3e 4bfe d63e
000000e0: bea2 063c 9e68 a1be a4a1 afbc c736 8abe
000000f0: 2984 c0be 436c bcbd b452 4abe 2b58 c53e
00000100: 7d81 9e3e 7c06 08bf d0d0 223e bff0 033f
00000110: 9246 963e d041 c93d 9210 fa3d b4f1 2a3d
00000120: 8181 72bd b569 8cbe b4e1 9dbe 7c63 c03b
00000130: 31e3 843e cc28 173e 89aa a1be 8833 c43e
00000140: 75b8 b6be 21b7 683d 97c0 7e3e 9073 e93d
00000150: 4ccd 803e 79a7 23bd b3e8 fd3e 3f2f babe
00000160: 3d78 873e ed0c f73e 6a39 58be 28df d9be
00000170: b37b 89be b2b3 e1be 3f0b 68bd 079d 6b3e
00000180: 8d69 acbe f824 8abe b7b6 213d 7d8c d53d
00000190: 22df f03c c214 b03e 297d 6b3d 9e88 a2bd
000001a0: 12f1 893b b03c 4d3d d3b9 823e 13aa 16bc
000001b0: 26d5 dfbe ddf1 753e 0400 593e 834d d5bd
000001c0: 2b95 593e 16bb b2be ae66 ad3e fa0f 87be
000001d0: 4c15 27be 7ede 99bd a689 8e3e d274 fb3d
000001e0: c28d 80bc c643 eabc 97a4 a1be 985c 7a3e
000001f0: 38ff 98be 5ef8 0a3f aaa1 703e e25e d03d
00000200: 4b63 d1be 9aa4 b8be d418 9dbe ec1f 8abd
00000210: 4e36 5c3e 9308 32be 2b74 d53d e705 98be
00000220: 88dd 023f d6c5 53be f8a3 c43e 9ce3 5dbe
00000230: 31ec e13e 5954 55be fecb de3c 01af d13e
00000240: 9e43 9d3e 7ba9 2ebe f862 9fbe 28e4 9fbe
00000250: bda7 49bd cf7e 1d3f 5490 a6be 027a 553e
00000260: e975 fa3e 454c 393e bdc2 3bbc 595e b63e
00000270: e29d 833c 11e9 713e bd18 8e3e f732 a2be
00000280: ac7a a83a e8d5 c9bd c191 27be 5cb9 eebd
00000290: c14c a1be deec 673e 3790 c13d cf6c 05bd
000002a0: 562e 55be 1d6e 463d c714 223e 0a6a a3bc
000002b0: 14fa d8be 20f6 283e 40a4 b5be 7ea4 8dbc
000002c0: 9898 783d 7571 983d 7d0e ba3d df21 5fbe
000002d0: d336 82be 6ba3 903c 4d59 14be 1d10 a53e
000002e0: 8c56 b23e dfb7 573e c914 03be b855 813e
000002f0: ed52 a53e 4614 b5be 37dc 38bd 6b92 88be
00000300: b8c2 97bd aa7f 123e 5dc6 9bbd 210e 1c3c
00000310: 9660 563e ec63 f5bc d0f2 ea3c 7ab6 13be
00000320: 9196 493c 5f68 6a3e 3410 9fbe eb4c b03e
00000330: 3cf4 c73e f294 9bbe c149 70bb 5374 df3e
00000340: 4ba8 d63e fb9e 05be 0077 01be 4c9c 80be
00000350: 3adc a13b fda0 23be 907e 1d3e 6216 70bd
00000360: 5636 343e 7ab3 a03d 00be 73be 0342 923e
00000370: 7a6f e1bc 0759 72be 8319 b0be 5944 1fbe
00000380: 5910 d03d 3650 943d 41b9 c0bd 5251 553e
00000390: 73a1 2c3e 81f3 79be 76f5 ca3e 6c08 013e
000003a0: 32b8 13be 3a58 8bbe 5bd7 e4bd 4b17 443e
000003b0: e417 36be 5144 3a3e 4675 71be 2f20 70be
000003c0: 05da 14bf e603 233d 16cb e43d 3c59 45bc
000003d0: 3a7f 01bf dda9 1abe 35aa 1dbe cd02 0bbe
000003e0: 1f3c cdbe 5722 18be 96c8 26be 2038 03be
000003f0: 05ec 963e 6516 3ebc 07d7 a8be e1bc 2fbc

encoder.0.bias f4 [64]
0.09664944 -0.014534899 -0.0135644255 -0.01454016 0.23649544 0.17886306 0.12362274 0.34050515
0.10412162 0.060872734 0.17828946 0.01298627 -0.40187493 0.24143158 0.13411139 -0.013695348
0.39459762 -0.39091808 0.14831927 0.20665236 -0.040915083 0.1808845 0.30133364 0.21973301
0.111234814 0.11254199 0.32677367 0.41416588 0.33506498 0.20846088 0.2468197 0.03373112
-0.20176215 -0.38140035 0.41315424 0.27684194 0.3155097 0.38523808 0.3275734 0.30664936
0.32128134 -0.29150626 0.33749223 0.13207772 0.19645202 0.14289857 -0.14345662 0.2531823
-0.32391906 0.1208164 -0.07781453 0.45118126 0.38134667 0.25821924 0.11972119 0.048636075
0.30968398 0.23916104 0.20829517 0.3286527 0.17658387 0.3864201 0.38570088 0.13825856
00000000: 24f0 c53d c923 6ebc 533d 5ebc da39 6ebc
00000010: dc2b 723e e127 373e eb2d fd3d b156 ae3e
00000020: b73d d53d b055 793d 8391 363e 5dc4 543c
00000030: 8dc2 cdbe d739 773e 7f54 093e 7462 60bc
00000040: b308 ca3e 6a26 c8be 02e1 173e ad9c 533e
00000050: 9396 27bd c939 393e 6748 9a3e b101 613e
00000060: 14cf e33d 6a7c e63d e14e a73e 8d0d d43e
00000070: a38d ab3e c576 553e 4ebe 7c3e a529 0a3d
00000080: bd9a 4ebe e846 c3be f488 d33e 3abe 8d3e
00000090: 7d8a a13e ed3d c53e b3b7 a73e 2501 9d3e
000000a0: fd7e a43e 4f40 95be c8cb ac3e 623f 073e
000000b0: b82a 493e 0154 123e 4be6 12be 1ca1 813e
000000c0: b8d8 a5be 976e f73d 395d 9fbd 3b01 e73e
000000d0: df3f c33e 5035 843e 6230 f53d 9f36 473d
000000e0: e68e 9e3e a2e6 743e 544b 553e 2b45 a83e
000000f0: 67d2 343e dbd8 c53e 967a c53e a793 0d3e

encoder.2.weight f4 [32, 64]
-0.11616121 0.05813845 0.01574658 0.137983 0.0010281112 0.068298616 -0.11092673 0.09884524
-0.241452 0.09843677 -0.15886597 -0.08461168 0.0019480735 0.075500764 -0.10454786 -0.08803357
0.045775227 -0.1152568 0.083992325 -0.153199 -0.20038429 -0.020644492 -0.007962223 -0.1507732
-0.28354275 -0.0021056172 0.09369942 0.020103166 0.11404021 0.11408107 -0.093981795 0.17074858
-0.08023108 0.13493428 0.07251522 0.12648371 0.13852145 0.049474988 -0.05310352 -0.013473833
0.02816684 -0.11868891 -0.046368934 0.0066347485 -0.10359299 0.06635353 0.10431501 0.14715032
0.023268327 -0.21642123 0.16448277 -0.007913238 -0.013395759 0.11438697 -0.06460985 0.13383915
0.0763494 -0.123287305 0.02559975 0.005937522 -0.0015468963 0.16416165 -0.27979043 0.109398305
-0.22965233 -0.102041416 0.07836982 0.09602861 0.075119965 -0.040946513 -0.015732713 0.053077843
-0.14622256 0.10670865 -0.03834745 0.15071163 -0.017124414 0.12593572 -0.13575867 0.037987415
-0.06705036 0.03328556 0.11899485 0.005659298 -0.04025499 -0.024907837 0.102549635 -0.1681945
-0.20425378 0.11210358 0.14166605 -0.04601399 -0.045820512 0.17727181 0.12307151 0.21033338
-0.038991425 0.08281447 0.14100164 0.120524436 0.20237029 -0.0114492085 0.07434599 0.13272436
-0.054029778 -0.08468531 0.15742028 0.05086628 -0.2127896 0.19887511 0.08308571 -0.0077494397
-0.05372119 0.042897638 0.087791525 0.19445421 0.17547965 -0.016171303 -0.036421448 0.08450814
0.13147716 0.02643414 -0.00030498326 0.16073056 -0.037494864 -0.039277975 -0.22831881 0.12823166
0.0075828284 0.07170211 0.050323337 0.010256529 -0.10186899 -0.09762199 -0.1037191 -0.11001137
-0.11128697 -0.040464833 0.0352761 0.017864197 -0.080475 -0.088609815 0.06868748 0.10307655
-0.041690066 -0.017195612 -0.096993834 0.08948086 -0.10608223 0.10369779 -0.072108716 0.024627566
0.11377096 0.019162178 0.1180592 0.025019273 0.052663803 0.013615236 -0.003793627 0.106793925
0.072440594 0.07969977 -0.100900084 0.081240594 -0.092505336 -0.07219067 0.06536855 0.055097938
0.032421887 -0.016446352 0.077350214 -0.021801144 -0.008935183 -0.07989122 0.008833721 0.030466795
-0.0036684126 -0.055007383 -0.06247352 0.040744334 0.018601462 0.108396366 -0.109817296 0.008908242
0.041865587 0.042234525 -0.08902095 -0.08374378 -0.045708746 0.09610152 0.045338824 0.0050011724
-0.0020897423 0.048465244 0.20002088 0.26599473 0.19817227 -0.0013544911 0.078369156 0.12407674
-0.034470752 0.04371065 0.004232509 0.037127383 0.111626536 0.077287644 -0.093921825 0.06948342
0.07342713 -0.03184396 0.03001114 0.06701473 -0.119408846 0.10577219 0.20446281 -0.15805611
-0.033258796 -0.123110905 0.14814661 0.17297459 -0.019095216 0.11074091 0.07830446 -0.030485291
-0.03866402 0.021919804 0.17475195 0.019681629 0.14736526 0.12615146 0.015252105 -0.04875355
0.07965146 0.06297079 0.12750916 0.094197914 -0.10754572 0.22098136 0.23960723 -0.027910415
-0.09028861 -0.08776172 0.102956474 0.018377032 -0.009026887 0.052973147 -0.038721386 0.10061744
0.1932601 -0.12608005 0.0702867 0.07459688 0.16056621 0.01671685 -0.11710545 0.10360996
00000000: eee5 edbd 9522 6e3d f9fe 803c 6a4b 0d3e
00000010: b0c1 863a 25e0 8b3d 8e2d e3bd 606f ca3d
00000020: 313f 77be 3899 c93d c3ad 22be e348 adbd
00000030: 8056 ff3a 25a0 9a3d 301d d6bd f24a b4bd
00000040: ce7e 3b3d c20b ecbd 2b04 ac3d 33e0 1cbe
00000050: 8a31 4dbe a31e a9bc fc73 02bc 4a64 1abe
00000060: 842c 91be 65fe 09bb 7be5 bf3d 65af a43c
00000070: ea8d e93d 56a3 e93d 8779 c0bd b7d8 2e3e
00000080: 3150 a4bd 362c 0a3e dc82 943d f284 013e
00000090: 91d8 0d3e 49a6 4a3d 1483 59bd 5ac1 5cbc
000000a0: 25be e63c 2c13 f3bd 5aed 3dbd 4e68 d93b
000000b0: 9028 d4bd 5ce4 873d 1ca3 d53d 93ae 163e
000000c0: 389d be3c 879d 5dbe 2c6e 283e 87a6 01bc
000000d0: e379 5bbc b743 ea3d 2b52 84bd 210d 093e
000000e0: 135d 9c3d 0e7e fcbd 91b6 d13c 8b8f c23b
000000f0: 3ac1 caba fe19 283e b140 8fbe 380c e03d
00000100: fb29 6bbe 17fb d0bd 5b80 a03d a6aa c43d
00000110: 7fd8 993d 88b7 27bd e4e1 80bc 2768 593d
00000120: 5ebb 15be 118a da3d 3712 1dbd 2654 1a3e
00000130: 8048 8cbc 4bf5 003e 5204 0bbe b198 1b3d
00000140: b351 89bd 7056 083d 92b3 f33d a271 b93b
00000150: 6be2 24bd 850b ccbc 8b05 d23d 2e3b 2cbe
00000160: e727 51be 9096 e53d e810 113e 2a79 3cbd
00000170: 4aae 3bbd be86 353e ea0c fc3d a261 573e
00000180: 79b5 1fbd a29a a93d bc62 103e 84d5 f63d
00000190: 283a 4f3e 7695 3bbc b642 983d e5e8 073e
000001a0: 544e 5dbd 7e6f adbd c832 213e 2959 503d
000001b0: 84e5 59be eba5 4b3e d728 aa3d 03ef fdbb
000001c0: c00a 5cbd 6fb5 2f3d 0bcc b33d 011f 473e
000001d0: f0b0 333e ae79 84bc a82e 15bd 9b12 ad3d
000001e0: f3a1 063e 698c d83c 29e6 9fb9 8d96 243e
000001f0: 3794 19bd f1e1 20bd 68cc 69be 294f 033e
00000200: 6079 f83b 8ed8 923d d81f 4e3d 000b 283c
00000210: b0a0 d0bd 0aee c7bd ae6a d4bd a44d e1bd
00000220: 6cea e3bd 74be 25bd ac7d 103d f057 923c
00000230: 14d0 a4bd 1079 b5bd 06ac 8c3d cc19 d33d
00000240: 34c3 2abd d0dd 8cbc b4a4 c6bd be41 b73d
00000250: a441 d9bd 825f d43d bcad 93bd c0bf c93c
00000260: c000 e93d 00fa 9c3c 06c9 f13d 38f5 cc3c
00000270: 00b6 573d 7012 5f3c 809e 78bb c6b6 da3d
00000280: bc5b 943d a239 a33d b4a4 cebd 7861 a63d
00000290: 7073 bdbd b4d8 93bd f2df 853d 60ae 613d
000002a0: d0cc 043d 80ba 86bc ca69 9e3d 5098 b2bc
000002b0: e064 12bc 029e a3bd 50bb 103c 8095 f93c
000002c0: c069 70bb 6c4f 61bd 3ce4 7fbd 88e3 263d
000002d0: 1862 983c eafe dd3d e4e7 e0bd e0f3 113c
000002e0: 407b 2b3d 1cfe 2c3d 9e50 b6bd dc81 abbd
000002f0: 1839 3bbd e0d0 c43d 34b5 393d e0e0 a33b
00000300: 0ff4 08bb 7e83 463d 46d2 4c3e 7630 883e
00000310: aced 4a3e 2e89 b1ba 0280 a03d f21b fe3d
00000320: 3431 0dbd f009 333d dcb0 8a3b e212 183d
00000330: 749c e43d fc48 9e3d 165a c0bd 534d 8e3d
00000340: f760 963d d06e 02bd ecd9 f53c 053f 893d
00000350: a08c f4bd 179f d83d b35e 513e 76d9 21be
00000360: 603a 08bd 9221 fcbd bfb3 173e 4020 313e
00000370: 926d 9cbc 21cc e23d 175e a03d 4abc f9bc
00000380: 2a5e 1ebd 2991 b33c 2df2 323e 5e3b a13c
00000390: ebe6 163e d92d 013e f7e3 793c cdb1 47bd
000003a0: 4e20 a33d d4f6 803d c391 023e d6ea c03d
000003b0: ee40 dcbd f048 623e 995b 753e 62a4 e4bc
000003c0: 3ce9 b8bd 6bbc b3bd d8da d23d 6e8b 963c
000003d0: 82e5 13bc 5ffa 583d 519a 1ebd 8410 ce3d
000003e0: fae5 453e 211b 01be 79f2 8f3d 40c6 983d
000003f0: 786b 243e c7f1 883c fbd4 efbd 7531 d43d

encoder.2.bias f4 [32]
0.11010939 0.088156015 -0.11422305 0.017866144 -0.12703921 -0.009105384 -0.07227829 0.03709915
0.09282265 0.1085822 0.057417747 0.091869794 -0.096378684 -0.09385102 -0.07981826 0.1677843
-0.123925194 0.008209539 -0.1027462 0.043131277 -0.00970393 0.12484884 0.16444634 -0.07774387
0.08213025 0.12496512 0.12604049 0.08124463 0.07987185 0.2037201 -0.05752045 -0.01977551
00000000: 0881 e13d 248b b43d c6ed e9bd 055c 923c
00000010: 9116 02be c02e 15bc a406 94bd 47f5 173d
00000020: cd19 be3d 5860 de3d df2e 6b3d 3b26 bc3d
00000030: 3062 c5bd f734 c0bd c277 a3bd a6cf 2b3e
00000040: 7ecc fdbd 4d81 063c 9a6c d2bd 6caa 303d
00000050: 3bfd 1ebc c0b0 ff3d 9f64 283e 2e38 9fbd
00000060: e833 a83d b6ed ff3d c210 013e 9663 a63d
00000070: da93 a33d 009c 503e 909a 6bbd 4000 a2bc

encoder.4.weight f4 [16, 32]
-0.042076092 0.0035053168 0.11069324 0.123641096 0.034507617 0.0655429 -0.13318478 -0.10445611
0.21564233 -0.08371314 -0.044902947 0.11739102 -0.033319227 -0.06387368 -0.069052406 0.07785193
-0.11178482 0.16281743 -0.076322064 0.047856987 0.110076025 0.18172462 0.21314374 -0.069973335
-0.08907292 -0.019774698 0.19807652 0.016569646 0.21878229 0.1893224 0.14154159 -0.02855113
-0.116740935 -0.11066824 -0.06958133 -0.17409664 0.034370307 -0.09329 -0.17041035 -0.042596735
-0.0089264205 -0.19319458 -0.034844775 -0.08018349 0.041691873 -0.0613498 0.16485219 -0.024678752
0.037590366 0.09250647 -0.052279815 -0.09267537 -0.032732304 -0.15671264 0.07331633 0.030913891
-0.069872506 -0.032576002 -0.17591357 0.086329594 0.19385277 0.26405826 -0.11575973 0.09430581
0.010227701 -0.03097979 0.13625656 -0.091490515 0.083880164 -0.041779034 -0.011145966 0.03760712
-0.08765969 -0.29095975 -0.02836254 0.01782479 -0.013925345 -0.15197755 -0.15306991 -0.26436162
0.13190359 -0.14997052 0.114934914 -0.17094734 0.040697195 -0.3378069 -0.12986949 -0.023821883
0.019905185 0.040067222 -0.10578454 0.10771809 -0.26288489 -0.071110345 -0.211475 -0.0048405174
-0.15799423 0.09755722 -0.0865377 0.0076223942 0.103954166 0.10696912 -0.0395215 -0.058034368
0.15857685 0.042014115 0.043592103 0.17336793 0.11841884 0.17313612 0.053537495 -0.22591485
-0.1490513 -0.078313656 0.11432012 0.092046335 -0.12781586 -0.030373938 -0.06743824 0.021099554
-0.08421138 -0.03166521 0.049774848 0.24249116 0.18473504 0.1699243 0.05163326 -0.02500218
0.032968264 0.15956773 0.1079311 0.2318907 -0.10700092 -0.08873231 -0.08837035 0.07604528
-0.2173128 0.07645338 0.29946375 0.14574072 -0.033520784 0.15120895 -0.15501459 0.2947551
0.14083146 0.046332248 -0.14881043 -0.141579 0.12716275 -0.11168952 -0.27587205 0.14860256
-0.029007096 0.067155 -0.10473191 -0.21242999 -0.13261585 -0.21405667 -0.1424023 0.024156189
-0.16329536 -0.18070449 0.020991575 -0.094343215 -0.040249534 0.07796204 -0.123799056 0.056231752
-0.13190398 -0.1261984 -0.2200081 -0.15481934 -0.13273944 0.044237453 0.08849702 -0.19144766
0.16057251 -0.15330826 -0.16068941 0.057325024 -0.16237333 0.060831778 0.09801192 -0.0686384
-0.06608433 -0.17309158 -0.079126544 -0.11279404 0.28272536 0.024790956 0.07532627 0.0666592
0.121621296 -0.005347459 0.09361774 0.23138827 0.0041069677 0.055588406 0.010054383 -0.017271005
0.037617996 0.09984839 -0.084589235 -0.027207091 -0.14948598 -0.08715592 0.1504351 -0.0067468993
-0.1552094 -0.15628268 0.023600528 0.076102816 -0.09976334 0.21799348 0.15256068 0.039692994
-0.13509077 0.10009621 0.10101335 0.1257434 -0.19976427 -0.22662346 0.06473284 0.041833222
0.10397414 0.21862976 -0.100159094 -0.009830655 -0.16376828 0.05509613 -0.020834008 0.07723214
-0.16442545 0.19117443 0.15214595 -0.22626849 0.09893033 0.13384573 -0.018053139 0.23876235
0.13471107 -0.1216927 0.12781592 -0.15551278 0.12034429 0.013643881 -0.28959092 -0.06945263
0.08650121 0.09019757 0.14265746 -0.24746042 -0.13435848 -0.31406936 -0.19248632 -0.11987919
00000000: fb57 2cbd 75b9 653b 23b3 e23d 8b37 fd3d
00000010: dc57 0d3d 5b3b 863d 9761 08be 16ed d5bd
00000020: 58d1 5c3e cb71 abbd 27ec 37bd b46a f03d
00000030: be79 08bd 34d0 82bd 596b 8dbd d570 9f3d
00000040: 71ef e4bd 9db9 263e be4e 9cbd b005 443d
00000050: 8a6f e13d 0516 3a3e 5a42 5a3e 2e4e 8fbd
00000060: dd6b b6bd 8cfe a1bc 92d4 4a3e 11bd 873c
00000070: 7708 603e bbdd 413e 47f0 103e 0fe4 e9bc
00000080: df15 efbd 08a6 e2bd a880 8ebd 6446 32be
00000090: e1c7 0c3d d40e bfbd 0d80 2ebe ea79 2ebd
000000a0: 1f40 12bc cdd4 45be 65b9 0ebd 3e37 a4bd
000000b0: 19c5 2a3d ee49 7bbd 03cf 283e 182b cabc
000000c0: 5bf8 193d 0874 bd3d 5c23 56bd 96cc bdbd
000000d0: 4f12 06bd 4779 20be df26 963d 213f fd3c
000000e0: 5119 8fbd 6a6e 05bd b022 34be 92cd b03d
000000f0: 5781 463e a532 873e 7013 edbd 6823 c13d
00000100: 1692 273c 54c9 fdbc d786 0b3e 615f bbbd
00000110: 5dc9 ab3d 7e20 2bbd 929d 36bc ec09 1a3d
00000120: ec86 b3bd adf8 94be 8f58 e8bc 4b05 923c
00000130: 2127 64bc 01a0 1bbe 5cbe 1cbe 685a 87be
00000140: bc11 073e df91 19be ff62 eb3d d20c 2fbe
00000150: 1ab2 263d 07f5 acbe 82fc 04be 1c26 c3bc
00000160: 3310 a33c 871d 243d 91a5 d8bd 4d9b dc3d
00000170: d998 86be 4da2 91bd e78c 58be 349d 9ebb
00000180: 3dc9 21be 14cc c73d ad3a b1bd 47c5 f93b
00000190: ece5 d43d a012 db3d 4ce1 21bd 72b5 6dbd
000001a0: f861 223e fe16 2c3d a28d 323d 5d87 313e
000001b0: 9485 f23d 984a 313e 224a 5b3d 3956 67be
000001c0: e7a0 18be e962 a0bd ab20 ea3d ca82 bc3d
000001d0: 29e2 02be c4d2 f8bc 0f1d 8abd f9d8 ac3c
000001e0: 0477 acbd 61b3 01bd b6e0 4b3d 9a4f 783e
000001f0: 2f2b 3d3e a300 2e3e 667d 533d 5fd1 ccbc
00000200: bb09 073d b965 233e fb0a dd3d c174 6d3e
00000210: 4c23 dbbd 49b9 b5bd 84fb b4bd a1bd 9b3d
00000220: 3f87 5ebe 9793 9c3d 5053 993e 0e3d 153e
00000230: 174d 09bd 85d6 1a3e 25bc 1ebe 24ea 963e
00000240: 1f36 103e e2c6 3d3d c361 18be 16fa 10be
00000250: f436 023e 7abd e4bd 1a3f 8dbe 452b 183e
00000260: 4aa0 edbc 9088 893d af7d d6bd 3f87 59be
00000270: 73cc 07be ac31 5bbe e9d1 11be 33e3 c53c
00000280: e636 27be 990a 39be 86f6 ab3c 0437 c1bd
00000290: b2dc 24bd 90aa 9f3d 5c8a fdbd 4453 663d
000002a0: d611 07be 273a 01be ce49 61be f688 1ebe
000002b0: d9ec 07be 5532 353d ed3d b53d db0a 44be
000002c0: 1f6d 243e d7fc 1cbe c48b 24be a5cd 6a3d
000002d0: 3245 26be be2a 793d 79ba c83d 4a92 8cbd
000002e0: 3957 87bd eb3e 31be 190d a2bd 9000 e7bd
000002f0: 61c1 903e 6716 cb3c a944 9a3d 9e84 883d
00000300: 9614 f93d bd39 afbb a8ba bf3d 0cf1 6c3e
00000310: be93 863b abb0 633d 24bb 243c ec7b 8dbc
00000320: 5415 1a3d 507d cc3d 1f3d adbd 68e1 debc
00000330: da12 19be ce7e b2bd a90b 1a3e 1815 ddbb
00000340: 37ef 1ebe 9108 20be e555 c13c cbdb 9b3d
00000350: b950 ccbd af39 5f3e de38 1c3e 1f95 223d
00000360: 3c55 0abe 3eff cc3d 16e0 ce3d e1c2 003e
00000370: 018f 4cbe fb0f 68be a792 843d 5059 2b3d
00000380: 65f0 d43d 7be0 5f3e 3620 cdbd c110 21bc
00000390: dfb2 27be 7bac 613d 15ac aabc e22b 9e3d
000003a0: 255f 28be 3bc3 433e 26cc 1b3e edb2 67be
000003b0: fc9b ca3d db0e 093e 2de4 93bc 1e7e 743e
000003c0: b3f1 093e 063a f9bd 2de2 023e be3e 1fbe
000003d0: 1177 f63d 968a 5f3c 4345 94be 2e3d 8ebd
000003e0: 8c27 b13d 81b9 b83d cc14 123e 4466 7dbe
000003f0: 4595 09be b3cd a0be 221b 45be 3983 f5bd

encoder.4.bias f4 [16]
0.20301875 0.12618776 -0.10189853 -0.08366057 -0.07035385 -0.15258743 0.18305588 -0.024609942
0.22853366 -0.15032542 -0.045030843 -0.101644345 -0.17833613 -0.1495679 0.062838405 -0.082155764
00000000: 26e4 4f3e 5d37 013e 2db0 d0bd 3c56 abbd
00000010: ae15 90bd e13f 1cbe 0073 3b3e ca9a c9bc
00000020: ba04 6a3e e8ee 19be 4372 38bd e92a d0bd
00000030: bf9d 36be 5428 19be 6cb1 803d 4841 a8bd

decoder.0.weight f4 [32, 16]
0.28219584 -0.07802966 -0.22237247 0.34879494 -0.36421812 0.24980032 0.082242645 -0.4397551
0.27181575 0.10173402 0.046723228 0.07854387 0.1212731 -0.294345 -0.04920741 -0.04874583
0.108728066 -0.16665985 0.028338358 -0.115996584 -0.06776619 -0.20180735 0.29816955 -0.06347492
-0.13778959 -0.24599321 -0.09053938 0.053924773 -0.28799498 0.22667082 0.2657823 -0.08922804
0.18815595 0.1332549 0.0051838714 0.14197278 -0.10089058 -0.1124423 0.08885979 -0.232218
0.17428678 -0.17689362 -0.20882294 0.20286398 -0.038748927 -0.15374169 -0.008358698 0.05246135
0.17903985 0.29983813 0.07608198 0.28080878 0.004783007 0.0036433316 -0.22019976 -0.3944872
0.018572334 -0.2423899 0.33367696 -0.15270066 -0.17231943 0.16192117 -0.18927582 0.423667
0.1811698 0.1342578 -0.017195048 -0.10849317 0.08266066 -0.06763393 -0.017883517 -0.21135591
-0.24243465 0.077828065 0.22857696 0.1415233 0.25644156 -0.04982251 0.1180679 0.213995
0.1234615 0.23865382 -0.33047056 0.3252156 0.06958641 0.24758117 0.02543685 -0.049492788
0.046109438 0.19016284 0.13695063 -0.13823184 0.24983081 0.2894931 0.19508776 0.322823
0.20340772 -0.12788852 -0.17552039 0.2987594 -0.04535986 -0.27662817 0.2892517 -0.012100494
0.0931263 -0.16707012 -0.17528859 0.013437895 0.15383352 -0.32429865 -0.1682105 0.074301705
-0.24288765 -0.1290991 0.10417062 -0.054994345 -0.2045179 0.19769144 0.12488532 0.11602166
-0.18818724 0.21886948 -0.20503592 -0.005805701 -0.17103258 -0.027551413 0.24670821 -0.21017498
-0.06343828 0.03954428 -0.04693822 -0.16746573 0.14561644 -0.29205966 0.16411333 -0.1467559
-0.09242485 -0.19437513 -0.30639473 -0.20051537 0.06159781 0.09794302 -0.1440365 -0.26582733
-0.08277137 -0.21299404 0.22471587 0.12557654 -0.01435632 -0.13766475 0.26564968 -0.12579286
0.07325833 -0.15976149 0.10866931 0.01806593 0.056845993 0.15019777 0.16457868 0.0449527
0.023738831 0.1839773 -0.13386706 0.0717195 0.23597714 0.21638957 0.11137089 0.12380341
-0.19128138 0.24795422 -0.13129458 0.15938365 0.025078714 0.1319732 0.18616304 -0.09818244
-0.042986915 -0.21904778 0.15169178 0.11379435 -0.0026833294 -0.17983209 0.0901557 0.20178738
-0.22161241 0.008178567 0.059020862 -0.1440489 -0.030455593 -0.21374322 -0.2478437 0.06568695
0.26117653 -0.09016778 -0.10551177 0.06939381 0.2681864 -0.24745001 0.19272994 0.11089007
0.21838532 0.04758059 0.06496202 0.054692224 -0.11139878 -0.23349425 -0.05505517 -0.26244324
0.10935938 -0.091238886 -0.00022924395 0.18131392 -0.19870007 0.08014635 -0.09790851 0.059792347
0.26840803 -0.2471298 0.017710457 0.23624592 -0.18067476 -0.33257595 0.08039163 -0.03030623
0.30730575 0.057160832 0.15947725 -0.010047041 -0.16982669 0.10831631 0.2201836 0.06509611
0.16063781 -0.23188867 -0.2765728 -0.16637598 -0.252927 0.03202299 0.16000469 -0.09431047
0.20277758 0.20897943 -0.30641067 -0.23387879 -0.39172667 0.17854163 -0.115496784 -0.110818245
-0.1858642 -0.17810223 -0.008868847 -0.21989678 -0.0075196386 -0.01737231 0.1109696 0.15184729
00000000: f97b 903e 04ce 9fbd 9cb5 63be 4095 b23e
00000010: cc7a babe a8cb 7f3e d56e a83d 9527 e1be
00000020: 6f2b 8b3e ed59 d03d db60 3f3d 9cdb a03d
00000030: 085e f83d 63b4 96be b68d 49bd b5a9 47bd
00000040: d2ac de3d e1a8 2abe d825 e83c 9e8f edbd
00000050: 00c9 8abd 96a6 4ebe aea9 983e 24ff 81bd
00000060: b718 0dbe a5e5 7bbe b66c b9bd 39e0 5c3d
00000070: 1474 93be 651c 683e 9e14 883e 31bd b6bd
00000080: f4ab 403e f973 083e 77dd a93b 5061 113e
00000090: b89f cebd 2648 e6bd 1ffc b53d 8eca 6dbe
000000a0: 3c78 323e 9a23 35be aed5 55be 93bb 4f3e
000000b0: 32b7 1ebd 766e 1dbe ecf2 08bc b6e1 563d
000000c0: 3956 373e 6284 993e ded0 9b3d 2bc6 8f3e
000000d0: c5ba 9c3b f6c4 6e3b 0c7c 61be 3afa c9be
000000e0: 0225 983c 0f35 78be b5d7 aa3e 905d 1cbe
000000f0: 8174 30be aace 253e 85d1 41be e2ea d83e
00000100: 9384 393e e07a 093e a1dc 8cbc ab31 debd
00000110: fe49 a93d a883 8abd 7480 92bc af6d 58be
00000120: ca40 78be 5264 9f3d 1410 6a3e 7ceb 103e
00000130: 4f4c 833e b012 4cbd 95cd f13d 8121 5b3e
00000140: 62d9 fc3d ab61 743e 7033 a9be a982 a63e
00000150: 5283 8e3d eb85 7d3e f160 d03c f3b8 4abd
00000160: 40dd 3c3d 0cba 423e c93c 0c3e a68c 0dbe
00000170: a6d3 7f3e 7138 943e 16c5 473e 0e49 a53e
00000180: 1d4a 503e 35f5 02be 9ebb 33be fef6 983e
00000190: 43cb 39bd 35a2 8dbe cc18 943e 2641 46bc
000001a0: 00b9 be3d 6e14 2bbe da7e 33be 9e2a 5c3c
000001b0: 8986 1d3e 790a a6be 603f 2cbe 7e2b 983d
000001c0: 8ab7 78be 8e32 04be 6857 d53d c041 61bd
000001d0: 246d 51be a06f 4a3e e0c3 ff3d c49c ed3d
000001e0: 28b4 40be 521f 603e f0f4 51be c03d bebb
000001f0: 2a23 2fbe 80b3 e1bc 14a1 7c3e 1c38 57be
00000200: eeeb 81bd 2ff9 213d 4a42 40bd 237c 2bbe
00000210: 7a1c 153e d888 95be 530d 283e 2e47 16be
00000220: 3d49 bdbd 460a 47be c5df 9cbe e753 4dbe
00000230: fc4d 7c3d 5a96 c83d 4e7e 13be 851a 88be
00000240: 0984 a9bd 1c1b 5abe eb1b 663e 2397 003e
00000250: c536 6bbc fdf7 0cbe 3c03 883e d8cf 00be
00000260: 7708 963d 8498 23be 048e de3d 00ff 933c
00000270: 58d7 683d 72cd 193e 5087 283e 5320 383d
00000280: f077 c23c 8c64 3c3e 7214 09be ace1 923d
00000290: fea3 713e 3a95 5d3e 6c16 e43d a48c fd3d
000002a0: 44df 43be b6e7 7d3e 1672 06be 7835 233e
000002b0: e071 cd3c fc23 073e 86a1 3e3e e013 c9bd
000002c0: 0c13 30bd 104e 60be 1755 1b3e 030d e93d
000002d0: ccda 2fbb e725 38be 8da3 b83d 5aa1 4e3e
000002e0: 5dee 62be 65ff 053c dcbf 713d 8e81 13be
000002f0: 027e f9bc 81df 5abe bdca 7dbe e186 863d
00000300: eeb8 853e e3a9 b8bd 8e16 d8bd 581e 8e3d
00000310: ba4f 893e 8963 7dbe ff5a 453e 551a e33d
00000320: 67a0 5f3e dde3 423d cf0a 853d f404 603d
00000330: 0b25 e4bd 1e19 6fbe 8881 61bd f65e 86be
00000340: d0f7 df3d 74db babd 3461 70b9 5baa 393e
00000350: 0878 4bbe c523 a43d 4284 c8bd d2e8 743d
00000360: c76c 893e 980f 7dbe 8515 913c 73ea 713e
00000370: ce02 39be 6547 aabe 5ea4 a43d c544 f8bc
00000380: 2e57 9d3e 7a21 6a3d 014e 233e 589c 24bc
00000390: 0ce7 2dbe f1d4 dd3d cf77 613e 1c51 853d
000003a0: 3d7e 243e 3974 6dbe f39a 8dbe 775e 2abe
000003b0: a67f 81be 8a2a 033d 45d8 233e d925 c1bd
000003c0: eda4 4f3e b4fe 553e dce1 9cbe ec7d 6fbe
000003d0: 6690 c8be 9ed3 363e 9489 ecbd adf4 e2bd
000003e0: 2f53 3ebe 6e60 36be a44e 11bc 9f2c 61be
000003f0: 4d67 f6bb 6050 8ebc 0844 e33d db7d 1b3e

decoder.0.bias f4 [32]
0.12105017 0.08695303 0.027500466 0.059185278 0.21855272 0.06474244 0.2824144 -0.24738666
0.27361688 0.19759546 -0.01901403 -0.06766854 0.098568864 0.19128503 0.08069705 0.03398908
-0.21615988 0.1554711 -0.058966547 0.1249549 -0.080633566 0.24949488 0.11709448 -0.061791673
-0.11645505 0.30115262 0.058758333 -0.0969322 -0.14677165 -0.1255987 -0.09584158 0.26518044
00000000: 27e9 f73d 6e14 b23d a848 e13c 436c 723d
00000010: 49cc 5f3e af97 843d 9f98 903e ee52 7dbe
00000020: 8317 8c3e 7756 4a3e 50c3 9bbc ce95 8abd
00000030: 79de c93d 39e0 433e 7f44 a53d 2238 0b3d
00000040: 0459 5dbe d133 1f3e e886 71bd 5be8 ff3d
00000050: 3623 a5bd 967b 7f3e 3bcf ef3d 4419 7dbd
00000060: fc7f eebd ad30 9a3e 94ac 703d 6484 c6bd
00000070: 4f4b 16be f29c 00be 9748 c4bd bbc5 873e

decoder.2.weight f4 [64, 32]
-0.17669135 0.109310135 0.026841797 0.16552493 0.17924614 0.23871922 -0.042491738 0.026299486
0.115090705 0.18227385 -0.059196703 0.07461425 0.03652145 0.056519073 0.14771214 0.09282449
0.05173517 0.27975467 0.0357078 -0.20471197 0.066416964 0.20949088 0.3093338 -0.07969194
0.21907713 0.25625592 -0.2474692 0.10265329 0.13247924 0.13662533 0.09900243 -0.24937749
-0.029738832 -0.20238782 0.09796208 0.17412952 -0.010254458 0.05296295 -0.028845733 0.097077906
0.0027039358 0.08289773 -0.09531259 0.12297371 -0.2090598 0.16244587 -0.005728011 -0.09678801
0.016700268 -0.08731538 0.01891578 0.1561509 -0.05717557 -0.18331794 -0.26945707 0.010328886
-0.100982234 -0.021584775 0.008060603 0.06535071 0.14236468 -0.17469457 -0.008182242 0.07654847
0.08766817 0.25150827 0.007493304 -0.036493648 -0.016362842 -0.20054041 0.23226099 0.10021719
-0.10728227 0.0634227 -0.07473981 -0.123569034 0.2670637 0.04320795 -0.015131306 -0.18360248
-0.13445818 -0.1449726 -0.17049803 -0.02339249 0.08386584 0.109306194 0.120965734 -0.038576864
0.07429138 0.023169082 0.14075004 -0.074297935 -0.062860966 -0.08835589 -0.18724002 0.102680355
0.04290703 0.020118166 0.09431067 -0.16779122 0.038125765 -0.16790222 0.01009632 0.006227239
-0.16735889 -0.06638809 -0.16845882 0.068834715 -0.04015577 0.014435358 -0.039200697 -0.07428363
-0.11732955 0.010279131 0.0330912 -0.12236572 -0.07558361 -0.05508258 0.03557607 0.1424198
-0.07610368 0.061686758 0.14641017 -0.17309172 -0.12222731 0.15578069 -0.03265131 0.17230359
-0.0908882 -0.16415346 -0.045052767 -0.15120101 0.059785977 -0.021350224 0.09836208 0.006731315
-0.0971613 0.12662591 -0.052823234 -0.11238644 0.10107261 0.15015483 -0.15302996 0.098198764
0.12936153 -0.12698282 0.122283645 0.0022233094 0.11939357 0.10726065 0.16148773 0.1514189
-0.131414 -0.13275665 0.069507025 -0.03342991 0.06479703 -0.116118506 0.024560908 -0.14707372
0.1275303 -0.025242127 0.07591593 -0.1287946 -0.12661539 -0.17367725 0.031313468 0.06999127
-0.071901634 -0.14285988 -0.021635199 -0.06411079 0.14159383 -0.053230003 -0.16529907 0.045856077
0.108390905 0.020474095 -0.12982887 -0.13775866 0.0017455538 0.116780445 0.055279907 -0.017191088
-0.13613118 -0.042469032 -0.015962977 0.15896773 -0.176265 0.04294182 0.101014435 -0.009584867
0.23877253 -0.07108299 0.23339824 0.16824333 0.17647219 -0.12511036 0.10812219 0.0015216066
-0.043739937 0.19919105 0.09246584 -0.05184982 0.04827809 0.1477009 0.10048138 -0.0760598
-0.0973738 -0.078733645 -0.11808885 0.0041153035 -0.045285843 0.013867807 0.06846166 0.0129530355
-0.12066216 -0.0985474 0.025497405 -0.064228386 -0.12801881 0.13893606 0.1663308 -0.025411533
-0.17554586 0.02509515 -0.11921185 -0.16246954 -0.21070169 0.0076836254 -0.023047423 0.055598542
0.1845022 0.16708906 0.12930627 -0.053524453 -0.062240843 0.1780504 -0.063438274 -0.09982181
-0.10191843 0.15902823 -0.08333755 -0.117949076 -0.08253469 0.20699315 -0.07025646 0.00097381766
0.2639122 0.084296755 0.029197643 0.17594023 -0.048671108 0.09762042 0.21095634 -0.21952878
00000000: 94ee 34be fedd df3d 54e3 db3c 5e7f 293e
00000010: 4d8c 373e d072 743e d10b 2ebd 0572 d73c
00000020: adb4 eb3d ffa5 3a3e 3e78 72bd 5bcf 983d
00000030: 8497 153d 8b80 673d da41 173e c41a be3d
00000040: 42e8 533d 013c 8f3e 5842 123d 04a0 51be
00000050: 9e05 883d c784 563e 0061 9e3e 8735 a3bd
00000060: c155 603e fa33 833e 9168 7dbe e33b d23d
00000070: a3a8 073e 83e7 0b3e c9c1 ca3d d05c 7fbe
00000080: da9e f3bc c13e 4fbe 58a0 c83d 024f 323e
00000090: 5002 28bc aeef 583d e34d ecbc c8d0 c63d
000000a0: 8434 313b 49c6 a93d 3f33 c3bd a4d9 fb3d
000000b0: c613 56be 3658 263e 0ab2 bbbb cb38 c6bd
000000c0: 00cf 883c 68d2 b2bd 44f5 9a3c 06e6 1f3e
000000d0: ee30 6abd b3b7 3bbe 47f6 89be 7d3a 293c
000000e0: c6cf cebd 8ed2 b0bc 9f10 043c 98d6 853d
000000f0: 0cc8 113e 22e3 32be cf0e 06bc 72c5 9c3d
00000100: 5f8b b33d b1c5 803e 648a f53b 5d7a 15bd
00000110: 5e0b 86bc 775a 4dbe d3d5 6d3e ac3e cd3d
00000120: cfb6 dbbd c3e3 813d 2f11 99bd c311 fdbd
00000130: 93bc 883e d2fa 303d 4ce9 77bc 4a02 3cbe
00000140: 68af 09be b273 14be 0997 2ebe 9ba1 bfbc
00000150: dbc1 ab3d eddb df3d e2bc f73d c602 1ebd
00000160: 1426 983d 16cd bd3c c720 103e 8429 98bd
00000170: 40bd 80bd eff3 b4bd d9bb 3fbe 144a d23d
00000180: 48bf 2f3d dace a43c f425 c13d 76d1 2bbe
00000190: c329 1c3d 8fee 2bbe 096b 253c de0d cc3b
000001a0: 2160 2bbe 7bf6 87bd 7880 2cbe 37f9 8c3d
000001b0: 607a 24bd 4882 6c3c e990 20bd 0422 98bd
000001c0: 7a4a f0bd cd69 283c a38a 073d e19a fabd
000001d0: 94cb 9abd 459e 61bd 37b8 113d 7fd6 113e
000001e0: 3fdc 9bbd 41ab 7c3d 8cec 153e f53e 31be
000001f0: 5052 fabd f984 1f3e 61bd 05bd 5a70 303e
00000200: 9823 babd d817 28be 4089 38bd 70d4 1abe
00000210: 24e2 743d aae6 aebc 0f72 c93d 5d92 dc3b
00000220: 81fc c6bd 39aa 013e 2d5d 58bd dd2a e6bd
00000230: 28ff ce3d 30c2 193e e3b3 1cbe 6f1c c93d
00000240: 5977 043e c907 02be d96f fa3d f1b4 113b
00000250: 9e84 f43d 79ab db3d 0a5d 253e 8e0d 1b3e
00000260: 6491 06be 5cf1 07be b359 8e3d cded 08bd
00000270: 4eb4 843d 8acf edbd f533 c93c 7e9a 16be
00000280: 4e97 023e 94c8 cebc d079 9b3d bbe2 03be
00000290: 77a7 01be 73d8 31be 8d42 003d 9557 8f3d
000002a0: 2a41 93bd dc49 12be 4d3c b1bc 854c 83bd
000002b0: f9fd 103e b407 5abd 2944 29be 95d3 3b3d
000002c0: 0dfc dd3d 4ab9 a73c dcf1 04be 9b10 0dbe
000002d0: 11cb e43a 962a ef3d 2f6d 623d 53d4 8cbc
000002e0: f965 0bbe 02f4 2dbd cac4 82bc 70c8 223e
000002f0: d07e 34be c3e3 2f3d a8e0 ce3d d909 1dbc
00000300: c980 743e f593 91bd f3ff 6e3e fb47 2c3e
00000310: 20b5 343e ee1c 00be 2b6f dd3d a570 c73a
00000320: a628 33bd bdf8 4b3e bb5e bd3d 7a60 54bd
00000330: 3fbf 453d e83e 173e 2fc9 cd3d 3ec5 9bbd
00000340: ea6b c7bd 1b3f a1bd 91d8 f1bd abd9 863b
00000350: a67d 39bd cc35 633c a035 8c3d f838 543c
00000360: b91d f7bd 38d3 c9bd efdf d03c 2c8a 83bd
00000370: 5d17 03be 4145 0e3e 9f52 2a3e d92b d0bc
00000380: 4bc2 33be 5894 cd3c 5825 f4bd 6a5e 26be
00000390: 2fc2 57be ecc6 fb3b f3cd bcbc 4cbb 633d
000003a0: 25ee 3c3e 6519 2b3e dd68 043e 753c 5bbd
000003b0: 41f0 7ebd d852 363e edeb 81bd 616f ccbd
000003c0: 9cba d0bd 4cd8 223e e1ac aabd 498f f1bd
000003d0: f307 a9bd 03f6 533e 9ee2 8fbd cc47 7f3a
000003e0: 801f 873e c7a3 ac3d e52f ef3c ad29 343e
000003f0: 5b5b 47bd 37ed c73d f004 583e 27cc 60be

decoder.2.bias f4 [64]
-0.1600163 -0.12428069 -0.052094094 -0.1025468 -0.1535277 -0.17667063 0.12526825 0.00034455027
-0.124930315 0.110384054 0.059173252 -0.06772282 0.16695094 -0.17584147 -0.058369517 -0.051800925
0.13624199 -0.05562371 0.07645341 0.14674227 -0.19724882 0.0027890725 0.030467246 -0.0811552
-0.09917109 -0.09120307 -0.024298351 0.080228515 0.023280824 -0.09431594 0.036497917 -0.06516886
0.19104381 -0.087933466 0.14603482 0.22129267 0.17617911 0.020935027 0.16150604 0.14297454
0.07956856 0.11641325 0.027753025 0.018550374 0.13869469 0.22044729 -0.11879886 -0.014304554
0.18171835 -0.010217908 0.06061002 0.20947766 0.016061934 0.19804902 0.15483066 -0.09736533
0.14414665 -0.032630593 -0.017283356 0.012282404 0.14312938 0.12974262 0.03576411 0.093048036
00000000: 50db 23be e086 febd 9e60 55bd 0f04 d2bd
00000010: 5e36 1dbe 25e9 34be 5246 003e c1a4 b439
00000020: 77db ffbd 0911 e23d a75f 723d 43b2 8abd
00000030: 30f5 2a3e c90f 34be e014 6fbd 352d 54bd
00000040: 0583 0b3e b0d5 63bd 9b93 9c3d 9b43 163e
00000050: 98fb 49be dfc8 363b 7296 f93c b334 a6bd
00000060: 361a cbbd adc8 babd 560d c7bc d94e a43d
00000070: 6db7 be3c b728 c1bd d77e 153d 4077 85bd
00000080: fda0 433e 7616 b4bd 278a 153e 8c9a 623e
00000090: 4c68 343e ef7f ab3c d761 253e eb67 123e
000000a0: d7f4 a23d 126a ee3d 505a e33c f4f6 973c
000000b0: fb05 0e3e efbc 613e d14c f3bd a65d 6abc
000000c0: 6014 3a3e 0369 27bc 3642 783d 5081 563e
000000d0: 5194 833c 5dcd 4a3e ee8b 1e3e 7967 c7bd
000000e0: 2e9b 133e a8a7 05bd d395 8dbc 233c 493c
000000f0: 8290 123e 40db 043e 637d 123d f88f be3d

decoder.4.weight f4 [6, 64]
-0.17760763 -0.00016225682 0.07920721 0.012313947 -0.11868939 -0.021759404 -0.10047757 -0.21973313
-0.23563196 0.05988612 -0.03212818 -0.20854098 -0.13787962 -0.17736465 0.1449221 -0.19990624
-0.16080597 -0.09315315 -0.041175425 0.0030903867 -0.016039668 0.022619283 -0.17195244 -0.14772525
-0.06918678 -0.059047196 -0.07286972 0.059033487 0.09130733 -0.09130058 -0.15869974 0.025164051
0.044627868 0.00087633263 -0.045352135 0.061559048 -0.14190856 0.062020537 -0.11930262 -0.05450206
-0.1625205 0.03150321 -0.11675182 -0.04910475 0.06998616 -0.11495748 0.0012849271 -0.14214866
-0.0040590437 -0.09461338 -0.1562952 -0.009353208 0.026240049 0.071623996 -0.14883623 0.037851572
0.04551693 -0.13310963 -0.025362672 0.018258909 -0.10630856 -0.16616376 0.04519831 -0.079766296
0.1873943 -0.150876 -0.2169991 0.05332677 0.109964564 0.05812321 -0.14650238 -0.011567183
0.034777034 0.065739945 0.07293065 0.121131465 -0.038119376 -0.15990163 -0.18062256 0.17427924
0.013034691 0.031643156 -0.10245253 0.10143551 0.082189 0.09048361 0.09588239 0.055696074
0.09967956 -0.03490831 -0.044881202 0.028803036 0.10315533 0.18380195 0.0075615793 -0.15721957
-0.12032643 0.036501817 0.06582451 -0.0857733 0.08906079 -0.02491239 -0.058527544 -0.014101469
-0.052267727 0.24680568 0.038210258 0.06778262 0.057869647 -0.09182769 -0.10166313 0.124698184
-0.09688917 0.10431359 0.037661657 0.15076272 -0.07192231 0.11072 0.057748668 0.12398498
-0.003267764 -0.0052991253 -0.07306125 -0.15760241 0.12113597 0.05398752 0.16695933 0.049501035
-0.011222339 -0.0051157805 -0.048669647 -0.08646321 0.020957515 -0.105265334 -0.07405738 -0.062010948
-0.05520159 -0.15524796 -0.15618479 -0.044261012 0.084830925 0.06677296 0.098851964 0.12542985
-0.1578873 -0.36079538 -0.097174555 0.025335584 0.09121753 0.103239596 -0.12871568 0.08150757
0.07820754 -0.06694195 -0.104427345 0.0782828 0.07288575 -0.10549427 -0.102782674 0.010958817
-0.10232396 0.008459103 0.0767336 -0.057153165 -0.065095335 0.11343103 -0.075847834 -0.058718804
0.03790993 0.036583163 0.004230812 0.049243953 -0.014303704 0.048631683 0.078407735 -0.025972972
-0.15228619 -0.07473812 -0.108113244 -0.122976296 -0.041926555 0.07753557 -0.03855998 -0.13331409
0.024754578 0.21633556 0.009751002 -0.078711666 -0.13531773 -0.102777794 0.013347786 -0.042789295
0.043214418 -0.008618619 0.08094457 0.05239156 -0.0626584 -0.11767641 -0.104325905 -0.060198627
-0.15827823 -0.16802265 -0.020475948 -0.18170775 0.048974838 0.079142675 -0.1301586 0.09402033
0.03797227 -0.062925145 0.00408113 0.0029239636 -0.060675953 -0.010872296 0.047385946 0.06346528
0.10129003 0.07851482 0.0072789937 -0.098140806 -0.005370885 -0.085009195 -0.072734 -0.035741333
-0.17512216 -0.06128635 0.04869456 -0.15438472 -0.054812312 -0.03705764 -0.1663932 -0.17770429
-0.13441281 0.05583955 -0.03257543 0.008575683 -0.11782986 -0.17571339 0.10158461 -0.044104118
0.0068289977 -0.30743524 -0.09721244 -0.17367934 -0.011025775 -0.058235705 -0.077842705 0.03367772
-0.09639289 -0.00902045 -0.013818586 -0.0036956351 0.048162162 -0.17706347 0.011702839 -0.013577424
00000000: c6de 35be 7c23 2ab9 6437 a23d 70c0 493c
00000010: 6c13 f3bd c740 b2bc 2fc7 cdbd b901 61be
00000020: 8149 71be 264b 753d d798 03bd c48b 55be
00000030: 5130 0dbe 149f 35be 7566 143e 39b4 4cbe
00000040: 52aa 24be 14c7 bebd 90a7 28bd 1688 4a3b
00000050: 9f65 83bc 134c b93c 4d14 30be 4a45 17be
00000060: ccb1 8dbd 79db 71bd b83c 95bd 19cd 713d
00000070: 56ff ba3d ccfb babd 2f82 22be d724 ce3c
00000080: b6cb 363d b0b9 653a 29c3 39bd 5725 7c3d
00000090: 7a50 11be 3f09 7e3d ef54 f4bd 8d3d 5fbd
000000a0: c66b 26be 8309 013d 941b efbd 1022 49bd
000000b0: e754 8f3d d46e ebbd 006b a83a 6b8f 11be
000000c0: ba01 85bb a9c4 c1bd d90b 20be 333e 19bc
000000d0: 5ff5 d63c 9aaf 923d 8668 18be 400a 1b3d
000000e0: f66f 3a3d e44d 08be 61c5 cfbc b593 953c
000000f0: 4db8 d9bd d526 2abe dd21 393d 835c a3bd
00000100: 4be4 3f3e 3d7f 1abe 0335 5ebe 2c6d 5a3d
00000110: 1a35 e13d 9a12 6e3d b804 16be 4884 3dbc
00000120: 5d72 0e3d aaa2 863d aa5c 953d c613 f83d
00000130: 1023 1cbd 41bd 23be 1ff5 38be 4276 323e
00000140: 758f 553c 419c 013d a2d2 d1bd 6cbd cf3d
00000150: b552 a83d 794f b93d fd5d c43d 9121 643d
00000160: cc24 cc3d 04fc 0ebd 5ad5 37bd 58f4 eb3c
00000170: 1a43 d33d 9436 3c3e 20c7 f73b 2bfe 20be
00000180: b46d f6bd ee82 153d 00cf 863d e9a9 afbd
00000190: 8165 b63d 1215 ccbc 94ba 6fbd d909 67bc
000001a0: af16 56bd a1ba 7c3e 5c82 1c3d 9dd1 8a3d
000001b0: b908 6d3d 2810 bcbd c234 d0bd c361 ff3d
000001c0: d46d c6bd 5da2 d53d 1c43 1a3d 8b61 1a3e
000001d0: 014c 93bd 2bc1 e23d de89 6c3d d6eb fd3d
000001e0: fc27 56bb 49a4 adbb 23a1 95bd 8762 21be
000001f0: 2316 f83d 0522 5d3d 63f7 2a3e 99c1 4a3d
00000200: e7dd 37bc 47a2 a7bb d359 47bd a013 b1bd
00000210: 18af ab3c 5a95 d7bd 65ab 97bd 31ff 7dbd
00000220: 101b 62bd 52f9 1ebe e8ee 1fbe 094b 35bd
00000230: d6bb ad3d 43c0 883d e672 ca3d af70 003e
00000240: 35ad 21be 2cba b8be 7403 c7bd 928c cf3c
00000250: 42d0 ba3d 486f d33d 0bce 03be 71ed a63d
00000260: 462b a03d dc18 89bd 01de d5bd bc52 a03d
00000270: 2045 953d 610d d8bd b97f d2bd 9c8c 333c
00000280: 398f d1bd 0d98 0a3c 8126 9d3d 7019 6abd
00000290: b450 85bd 874e e83d 1c56 9bbd 2183 70bd
000002a0: 7147 1b3d 3ad8 153d a0a2 8a3b 07b4 493d
000002b0: 155a 6abc 0432 473d 3c94 a03d 45c5 d4bc
000002c0: e9f0 1bbe 4d10 99bd 7a6a ddbd ffda fbbd
000002d0: 2ebb 2bbd f8ca 9e3d 12f1 1dbd 7d83 08be
000002e0: 1dca ca3c 1287 5d3e abc2 1f3c 9533 a1bd
000002f0: bb90 0abe 2a7d d2bd acb0 5a3c d443 2fbd
00000300: 9a01 313d 1c35 0dbc 44c6 a53d 8898 563d
00000310: 0c53 80bd 5400 f1bd d2a8 d5bd d692 76bd
00000320: b013 22be 210e 2cbe 2dbd a7bc 9911 3abe
00000330: d799 483d 8e15 a23d 4c48 05be bb8d c03d
00000340: d088 1b3d e6de 80bd 00bb 853b f89f 3f3b
00000350: 5987 78bd b721 32bc c417 423d 16fa 813d
00000360: 2671 cf3d 61cc a03d a084 ee3b 0cfe c8bd
00000370: 40fe afbb 4d19 aebd 90f5 94bd 8165 12bd
00000380: 3953 33be 6507 7bbd f273 473d 0717 1ebe
00000390: e082 60bd c0c9 17bd fb62 2abe 1df8 35be
000003a0: 83a3 09be 03b8 643d d06d 05bd 0681 0c3c
000003b0: c850 f1bd 36ee 33be 980b d03d 85a6 34bd
000003c0: c9c5 df3b 2768 9dbe 5117 c7bd ffd8 31be
000003d0: 74a5 34bc 9088 6ebd ff6b 9fbd a6f1 093d
000003e0: a369 c5bd 82ca 13bc 5a67 62bc 7832 72bb
000003f0: b045 453d 2050 35be 44bd 3f3c d873 5ebc

decoder.4.bias f4 [6]
0.038698513 -0.12528035 0.06873918 -0.104989134 0.049046393 -0.028945409
00000000: 5582 1e3d 7e49 00be 21c7 8c3d 8b04 d7bd
00000010: dfe4 483d ec1e edbc
